pinn_iv_model.pt (torch, 31069 bytes, 5 tensors)

model.0.weight f4 [64, 42]
000000 9e 0a 0f bd f6 a9 ad 3c 34 e0 f8 bd 5b d8 83 3c
       -0.034922235 0.021199208 -0.12152138 0.016094377
000010 ae 95 ec 3d bc 49 b3 3d e0 a3 3e bd 4e 8e 90 bc
       0.11551987 0.08754298 -0.046543002 -0.017645981
000020 59 cb 14 3e 38 9c 01 be 31 8b a7 3d ce f4 c9 bc
       0.14530696 -0.12657249 0.081808455 -0.024652865
000030 2c 88 a2 bd 9e 2f e3 bd 78 b8 a0 bd 4f b0 87 bd
       -0.07936129 -0.11093067 -0.078476846 -0.06625425
000040 eb 7f 56 3d 8c 88 13 3e b7 af cb bd 06 a7 c4 bd
       0.052368086 0.14407557 -0.09945624 -0.0960217
000050 03 26 6a 3d 56 a9 fb bd 70 04 42 bd 8d 09 9d bd
       0.057165157 -0.12288158 -0.047367513 -0.07667837
000060 d7 c2 cb 3d 7b 81 c4 3c 9e a8 6d bd 02 82 c5 bc
       0.09949272 0.023987522 -0.058022134 -0.024109844
000070 63 26 bf 3d fc 55 de 3d 1f b0 27 bd 0e e8 c3 bd
       0.093334936 0.10856244 -0.040939447 -0.09565745
000080 65 3a aa 3d 15 66 4c 3d 67 8f f1 bd 0e d9 fb 3d
       0.08311919 0.04990204 -0.1179493 0.12297259
000090 a5 e1 7c bd 9b 6d 77 3d 38 d7 ac bd 40 db 83 bc
       -0.06173863 0.060407262 -0.08439487 -0.016095757
0000a0 24 d0 eb bd 5e f5 c7 bc 40 d8 d9 bd 1e 5f c3 bd
       -0.11514309 -0.024408992 -0.106369495 -0.095396265
0000b0 bf 4f a1 3c b9 a6 06 3e 24 01 a7 bc e7 a4 cc bd
       0.019691346 0.13149537 -0.020386286 -0.0999239
0000c0 4e 56 a9 3d d4 85 fb bc 41 a0 e5 bd 6e 02 0a 3e
       0.082684144 -0.030703463 -0.11212207 0.1347749
0000d0 f6 0f 1b be 43 4a 08 be 7e 41 cc bd b3 28 d3 3d
       -0.15142807 -0.13309579 -0.09973429 0.10310497
0000e0 f0 da d6 bd 19 8e 94 bd e4 f0 09 be dd 51 01 3e
       -0.10490978 -0.072536655 -0.13470799 0.12628885
0000f0 c0 2e 1a 3e 97 6a 05 be 95 cb b4 bd 12 9a a2 bd
       0.15056896 -0.13028942 -0.08827893 -0.07939543
000100 f6 e5 06 3d 94 50 4a bd da 3b 07 3e cf a3 6a 3d
       0.03293415 -0.04939325 0.13206425 0.057285126
000110 a2 9f e9 3c 2f a7 ec 3d cd c6 cd bd 3b fd a0 bd
       0.028518502 0.11555325 -0.10047684 -0.078608
000120 3c 62 b2 bc 8a 90 0a 3e 86 20 03 bd 04 7b df bd
       -0.021775357 0.135317 -0.03201344 -0.10912135
000130 4e a8 0b 3e 51 06 5e 3d f3 26 b5 b8 29 a3 62 bd
       0.13638422 0.054205243 -8.6380074e-05 -0.055331383
000140 a1 94 d8 3c 00 31 8f bc db 3c f6 bc f6 d1 9e bd
       0.02643806 -0.01747942 -0.030058315 -0.077548906
000150 7a b2 fd bc 8e 80 27 bd e1 b2 b7 3b 7e 09 14 3e
       -0.030968893 -0.040894084 0.005606041 0.14456746
000160 91 c1 14 bd 34 ca a3 bd fa ab 2c bd 77 f1 0a 3e
       -0.03631741 -0.079975516 -0.042156197 0.13568674
000170 9e 20 a0 bd f3 f7 84 3d cd 25 93 3d 3f e4 07 3e
       -0.07818721 0.06492605 0.07184944 0.13270663
000180 76 2f e5 3d 09 5a bb bc 34 19 d1 bd 75 ff d8 3d
       0.11190693 -0.02287008 -0.10209885 0.105955996
000190 8d 77 5b 3c f5 48 cc bc 9f 29 3b 3d 57 91 23 bd
       0.013395202 -0.024937132 0.04569399 -0.03993353
0001a0 bf 0c 19 bd 3a 03 bf bd 65 db 9d 3c 05 87 93 3c
       -0.03736567 -0.09326787 0.019269655 0.018008718
0001b0 b2 33 e5 bd 18 68 07 bd f7 34 d4 bc 99 dd d6 bc
       -0.11191501 -0.033058256 -0.025904162 -0.026228713
0001c0 f8 59 33 bc 53 6b d0 3d 5a 0c d7 ba 06 85 0f 3e
       -0.010946743 0.101767205 -0.0016406879 0.14015588
0001d0 d4 4f 12 3c e9 0b 5e bd aa 2b 13 3e ce ff cc bd
       0.008930165 -0.054210577 0.14372125 -0.10009728
0001e0 96 e6 0e bd 7b 9e 19 3e 22 9b b1 3d a3 4e 3b bd
       -0.034887873 0.15001862 0.08672167 -0.04572929
0001f0 6c 8b 0c 3e 45 16 d3 3d 09 ac 00 be b4 a3 4e bd
       0.1372506 0.10306982 -0.12565626 -0.05044909
000200 73 15 b0 bc 03 14 a8 bd 36 ed 18 be 52 85 52 3d
       -0.021494603 -0.08206942 -0.14934239 0.051396675
000210 21 15 e6 bd 7b 60 9f bd c0 0c 01 3e c9 a6 95 3d
       -0.11234499 -0.07782074 0.1260252 0.07307202
000220 cc 62 b7 3b 76 ad 64 b8 05 c4 48 3d b1 2b e4 3d
       0.0055964943 -5.4520984e-05 0.049015064 0.11141146
000230 9a ce bc bc 45 e9 b0 bb ee cc bd 3c 7e 5a 0d be
       -0.023047734 -0.0053989016 0.023169007 -0.13804051
000240 b8 3c 16 3e a8 9a e2 bb c9 62 02 3d 88 42 ce bd
       0.146716 -0.006915409 0.03183249 -0.100712836
000250 59 08 48 3b 38 7a d5 3d 72 2f 5f 3d 45 8f 5f 3d
       0.0030522554 0.10423702 0.054488607 0.05457999
000260 ec 23 2a bd 53 32 8c bd 7a 1f 97 3c 2b d6 a4 3d
       -0.041538164 -0.06845536 0.018447626 0.08048662
000270 31 6f 04 3e 6b 72 27 bd c5 c4 80 bd ca 7f cf bd
       0.12933041 -0.0408806 -0.06287531 -0.10131796
000280 de 88 29 bd e3 9f 16 3d 1a 2f 97 bd 22 32 9c bd
       -0.041390292 0.036773574 -0.07382031 -0.076267496
000290 61 ad a0 bd ed 8a c8 3d 9d 30 de 3d 1a c1 97 bd
       -0.078455694 0.09792123 0.10849116 -0.07409878
0002a0 80 69 0b 3e 82 b2 10 3e 4f c8 5b bd 67 0c d4 3d
       0.13614464 0.14130595 -0.053657826 0.10353928
0002b0 51 96 15 3e 64 3d ea bd f1 f5 d3 3d 89 09 fc 3d
       0.14608122 -0.114374906 0.10349644 0.12306506
0002c0 8e fe 41 bd e3 5a 8c bc d7 45 02 3e 20 f2 49 bd
       -0.047361903 -0.017133182 0.12721954 -0.049303174
0002d0 76 f0 06 be 99 b6 9f 3d 2e 6f 1b be 0f b1 7c bc
       -0.13177666 0.077984996 -0.1517913 -0.015423073
0002e0 a2 e6 e1 3d e0 d8 5b bd db 79 f4 3d cc 01 14 3e
       0.11030318 -0.053673625 0.119373046 0.1445381
0002f0 0f 0a 0d 3b c9 5e c1 3d 41 7e 89 3d 7b ac 8e 3d
       0.0021520888 0.09441907 0.06713534 0.06966492
000300 67 10 11 3e 32 b5 49 3d ce 75 a4 3d 80 70 41 bc
       0.14166413 0.049245067 0.08030282 -0.011806607
000310 31 0c c9 bc b8 fb 9d bc 53 72 9a 3d f2 56 02 bd
       -0.024541946 -0.019285068 0.07541337 -0.0318212
000320 e3 bc e7 bd ff 87 d7 bd 67 93 b7 bc d6 37 18 3e
       -0.11315324 -0.10523986 -0.022409154 0.1486505
000330 db 3a df 3d 83 11 f9 3d 29 79 38 3c 9e 1b 90 bc
       0.10899898 0.12161543 0.011259356 -0.017591294
000340 84 58 95 bb 5e 67 2e 3d 8f 5f 08 3e e6 4c 19 be
       -0.004557671 0.042579047 0.13317703 -0.1497074
000350 52 c1 91 3d 39 eb 9b 3d da 2b 70 bd 2a 5d 8c bd
       0.07116951 0.076132245 -0.05863557 -0.06853707
000360 f0 e1 3d bd 96 2c c2 bd fa 57 ac 3d e6 4b a7 bc
       -0.04635805 -0.0948116 0.08415218 -0.020421933
000370 62 b1 a7 bd ff 59 a1 bd 78 0b 9d bd 9c 0b 91 bd
       -0.0818813 -0.078784935 -0.07668203 -0.070822924
000380 92 14 87 bd f7 29 0d 3e 41 d7 a9 3c c8 26 53 bc
       -0.0659572 0.1378554 0.020732524 -0.012887664
000390 71 55 f2 3d 37 d1 c3 bd a6 c5 2e 3c 70 25 e8 3c
       0.11832703 -0.09561389 0.01066724 0.028338164
0003a0 d1 1f b9 3d 26 2b 32 bc 1f 0c 43 bd 54 95 c1 3d
       0.090392716 -0.010874545 -0.04761898 0.0945231
0003b0 4b 01 4b 3d 26 4a ac 3d 2f 1b 9a 3d 91 27 08 be
       0.04956178 0.0841258 0.07524716 -0.13296343
0003c0 51 88 00 be d1 e5 b0 3d a5 09 98 bd 29 9e 6f bd
       -0.12552 0.08637584 -0.074237145 -0.058500443
0003d0 2d fc 1b be a6 85 f7 bd 85 22 83 bd 4f 01 09 3e
       -0.15232916 -0.12086038 -0.064030685 0.13379405
0003e0 b3 3e 8a bd 46 25 99 3d 16 20 4c bd 6f b5 96 bd
       -0.0675024 0.074778125 -0.049835287 -0.073588245
0003f0 6f bf 03 3e 8b b3 0d 3e 29 ae cb bd d6 a9 fd 3d
       0.12865995 0.13838021 -0.09945328 0.12385909

model.0.bias f4 [64]
000000 ed 0e 17 3e f6 11 1d 3e 2a 1c 81 bc 7a 5b 36 3c
       0.14751787 0.15338883 -0.0157605 0.011130208
000010 c2 53 a1 3c 8f 1f 1e bd 44 0a 01 3c d2 9d e1 bd
       0.01969326 -0.038604315 0.007875983 -0.1101643
000020 08 e3 c9 3d bb 90 da bd e7 4a cd bd 7d b9 01 3e
       0.09857756 -0.106721364 -0.10024052 0.12668414
000030 41 cc 02 3d c4 4e 41 bd f3 eb 0e bd 07 cb 93 bc
       0.031933073 -0.047194257 -0.034892987 -0.018041147
000040 ec fe 13 3e b6 b3 ac 3d 2c d7 b6 3d 79 ef c0 bd
       0.14452714 0.08432715 0.089277595 -0.09420676
000050 ba fd a5 bd 40 4c b6 bd 76 a6 be 3b 0b 7e cf 3d
       -0.08105035 -0.08901262 0.0058181835 0.10131463
000060 88 00 1c 3e 09 4c 0f 3e 66 bf d8 bd 6e d1 a6 3d
       0.15234578 0.13993849 -0.10583381 0.08145414
000070 30 9f 40 3d d3 4f 0d be d7 ed 54 3d 3f 4f 12 be
       0.047026813 -0.13799982 0.051984634 -0.14288042
000080 9c e1 85 bd 9a bc c1 bd 01 9d 68 3d 32 96 0b be
       -0.06537172 -0.09459801 0.056790356 -0.13631514
000090 58 72 fb 3c 07 d7 17 be 93 84 60 3d aa 0f a7 3d
       0.030694172 -0.1482812 0.054813933 0.081572846
0000a0 18 b2 4e 3d 39 f9 e4 3b fe 93 80 bc 13 e9 f2 3d
       0.050462812 0.0069877175 -0.015695568 0.11860862
0000b0 99 d4 e0 bd c7 a7 d3 3b 22 42 f5 3d f4 01 ea 3d
       -0.1097805 0.0064592096 0.119755045 0.11426154
0000c0 b2 3d 8b bd d2 f8 f4 bc 2c 1f 2e bd e3 a1 da bd
       -0.06798877 -0.029903803 -0.042510197 -0.10675409
0000d0 70 07 db bd ee 2f e6 3d 65 8c f0 bd 41 60 9a 3c
       -0.10694778 0.112396106 -0.11745528 0.018844726
0000e0 8a 77 2f 3d ec 09 b4 bd c7 30 32 bd ad 45 7b 3c
       0.04283861 -0.08790955 -0.04350355 0.015336436
0000f0 17 74 09 be b0 df 0e be b6 a6 91 3d 05 8e 1c be
       -0.13423191 -0.13952518 0.07111876 -0.15288551

model.2.weight f4 [64, 64]
000000 34 43 82 bd 28 a2 16 bd 3c 0f 90 3d 90 cc dd 3c
       -0.06360474 -0.036775738 0.07034156 0.027075082
000010 56 14 85 3d d0 82 8c bd 88 69 36 3d 04 0e 37 bd
       0.064980194 -0.06860888 0.044534236 -0.0446911
000020 00 4c 37 bb d0 50 b3 bc fc 3f 39 3d e0 ab d9 bb
       -0.0027968884 -0.02188912 0.045227036 -0.0066428035
000030 e4 dd 08 bd 8e a9 8e bd d0 35 c4 bd 40 35 23 3d
       -0.033414736 -0.06965934 -0.095805764 0.039845705
000040 80 d2 10 3c 38 0d d2 bd 62 11 82 bd 06 37 98 bd
       0.00883925 -0.102564275 -0.06350972 -0.0743237
000050 f0 58 9a 3c d6 c4 f0 bd 40 8e c3 bb 00 37 35 bc
       0.018841237 -0.117562935 -0.0059678853 -0.011060476
000060 b0 c7 94 bc 98 ac 15 3d 50 d2 10 bc b0 70 ae bd
       -0.018161625 0.03654155 -0.008839205 -0.08517587
000070 50 f6 0c 3c 12 1d ba 3d 76 1b e9 3d 88 71 b0 3c
       0.008603647 0.09087576 0.11382191 0.02153851
000080 36 ab a4 3d c8 32 17 3d 80 f2 79 bb f2 b4 ee 3d
       0.080404684 0.036913663 -0.0038138926 0.11655606
000090 a0 f7 04 bc 8e 7d f9 bd 60 2d 8b 3c 6a 33 f0 3d
       -0.008115679 -0.12182151 0.01698941 0.117285565
0000a0 40 13 51 3b 38 3a 1f 3d 60 97 e4 bd 50 be cf 3d
       0.0031902343 0.03887388 -0.11161685 0.10143721
0000b0 74 c3 fb 3d 70 61 94 bd 64 8a 4c bd c0 70 01 3b
       0.12293139 -0.07245147 -0.049936667 0.0019751042
0000c0 36 eb d7 bd 1c 3a 6d 3d 60 28 77 bc c6 33 ee bd
       -0.1054291 0.057916746 -0.01508531 -0.11630969
0000d0 28 a6 39 3d e0 99 f4 bb 6a 2e c7 bd a0 ce 03 bd
       0.045324475 -0.0074646324 -0.0972565 -0.032179475
0000e0 ae 79 9c bd 16 9a a6 3d 50 70 4b bc b0 5c 9d 3d
       -0.07640396 0.08134858 -0.012416914 0.07683694
0000f0 80 92 69 3b e6 7c 9a 3d 30 84 38 3c 9c 3d 9a 3d
       0.00356403 0.07543354 0.011261985 0.07531282
000100 38 68 62 bd 80 35 a0 bd 04 40 df bd 30 79 28 3d
       -0.055275172 -0.07822704 -0.10900882 0.0411312
000110 9a e5 c9 3d 78 f8 cb 3c 0c da d3 bd 4c c0 1c bd
       0.09858246 0.024898753 -0.103443235 -0.038269326
000120 1e e9 ca 3d 6a dc a5 3d 0c 24 03 3d 48 e4 7a 3d
       0.09907745 0.08098681 0.0320168 0.061252862
000130 6e 46 ea 3d c0 e4 ff bb 1c 8d 00 bd 1a b8 c1 3d
       0.11439215 -0.0078092515 -0.031384572 0.09458943
000140 10 d3 a8 bd a6 64 d7 3d 20 c1 ef bc c4 50 ac 3d
       -0.08243382 0.10517244 -0.029266894 0.08413842
000150 c4 f8 45 3d 82 ca e2 3d 6c 76 92 3d 38 01 bc bd
       0.048332945 0.110737815 0.071514934 -0.0917992
000160 52 8e a2 bd fe 5f c6 bd f8 ca ce bc e4 0f 3b bd
       -0.07937302 -0.09686278 -0.025243267 -0.04566945
000170 60 17 b3 3c 70 b5 6c 3c 80 28 ea ba 7c 0b db 3d
       0.021861732 0.014447555 -0.0017864853 0.1069555
000180 22 c5 ce bd f0 21 62 bd a6 9b 8c bd 40 78 d1 3d
       -0.10096194 -0.055208147 -0.06865625 0.10228014
000190 78 e5 da bc a0 b1 20 3d 62 05 cf bd 70 d2 96 bc
       -0.026720747 0.039231896 -0.101084486 -0.018410891
0001a0 80 c5 74 3b 90 7e 12 3d 7c 8a 92 3d d6 cc f8 bd
       0.0037349164 0.03576523 0.0715532 -0.12148444
0001b0 26 a9 b8 3d d6 2c c7 bd 68 bc 7a bd 98 fc f9 3c
       0.090166375 -0.09725349 -0.061214834 0.030515954
0001c0 90 82 ac 3d 70 1a 11 3c e0 ac e5 bb 22 e4 c4 bd
       0.0842334 0.008856401 -0.0070091337 -0.096138254
0001d0 b6 80 d8 3d 68 ab dc bd a4 a0 aa bd c0 f5 eb bc
       0.10571425 -0.10774881 -0.08331421 -0.028803706
0001e0 f6 05 b2 bd 12 32 be 3d de 09 9f bd d0 c0 d7 3d
       -0.08692543 0.09286894 -0.07765554 0.10534823
0001f0 dc 44 7e bd f8 0d df bc 60 a2 61 bd fa ee c5 3d
       -0.06207739 -0.02722834 -0.055086493 0.09664722
000200 60 36 e3 bc 68 a7 07 3d 70 14 cb 3d 54 25 2b 3d
       -0.027735889 0.033118635 0.099160075 0.041783646
000210 bc 66 99 3d e0 8d af bc 7c c0 6e 3d 54 82 07 bd
       0.07490298 -0.021429956 0.058289036 -0.033083275
000220 70 1e 3a bd fc 72 08 3d 3e 50 b4 3d 68 4f e4 3d
       -0.045439184 0.033312783 0.088043675 0.11147958
000230 a8 c2 3d 3d 14 61 e7 3d a4 c5 55 bd c0 be b0 bb
       0.046328217 0.11297813 -0.052190438 -0.005393833
000240 54 ed 29 bd a0 c4 fe 3c 88 46 27 3d 2e cb d7 3d
       -0.0414861 0.031099617 0.04083875 0.105368
000250 a0 08 2b 3d c0 48 78 3c 42 d6 ea bd e0 3c fe bc
       0.041756272 0.015154064 -0.11466648 -0.031034887
000260 98 7d d2 3c d8 4b 8c 3d 00 46 37 bb b0 d2 09 bc
       0.025694653 0.068504035 -0.0027965307 -0.008412048
000270 d6 4f fb bd 78 4c ec 3d fc e7 76 3d fa 89 f7 3d
       -0.12271087 0.11538023 0.06027983 0.12086864
000280 80 21 1f bc 3e 43 d8 3d ea 8c ea 3d 00 c2 3e ba
       -0.009712577 0.105597004 0.114526585 -0.0007276833
000290 08 a7 0f bd aa d6 80 bd 12 0d d2 3d 06 ad ad bd
       -0.035071403 -0.06290944 0.10256399 -0.08480267
0002a0 a0 97 f4 bd 2a a4 a2 3d b8 35 0a 3d 80 7b a4 3c
       -0.11942983 0.07941468 0.033742636 0.02007842
0002b0 bc ff 6b 3d 2c 4c 1c 3d 58 9a 86 bd 00 c8 ab 3d
       0.057616934 0.03815858 -0.065724075 0.08387756
0002c0 e0 9a a9 bc 1c a7 60 bd 74 27 40 bd 6c 61 a7 bd
       -0.020703733 -0.054846868 -0.046912625 -0.081728786
0002d0 10 a6 98 3d b4 39 77 3d 4a 38 81 3d 4a db 92 3d
       0.07453549 0.060357764 0.063095644 0.07170732
0002e0 24 1c 58 3d f4 1d f8 3d 16 41 9d 3d c8 f0 b7 bd
       0.052761212 0.12115088 0.0767843 -0.08981472
0002f0 28 4e 69 3d 52 fe c1 3d 72 e1 aa bd 78 f2 fd bc
       0.0569593 0.09472336 -0.083437815 -0.030999407
000300 d0 4a 4b bd f6 2b c0 bd f4 1f 5d bd 64 33 d4 3d
       -0.049631894 -0.09383385 -0.05398555 0.103613645
000310 02 fe df bd 08 4e c7 bd f0 82 73 bd 5a f2 d1 3d
       -0.1093712 -0.0973168 -0.059451044 0.10251303
000320 e2 df f9 3d 6c c0 b8 3d 36 d5 cf bd 68 91 64 bd
       0.122009054 0.090210766 -0.10148089 -0.055802733
000330 70 b6 61 bc fa e3 b4 bd 90 04 8a 3d 00 46 28 ba
       -0.013776407 -0.088325456 0.067391515 -0.0006419122
000340 08 c4 8c bd 22 1d d3 3d 40 d7 e4 bd 0e ea c6 bd
       -0.068733275 0.10308291 -0.11173868 -0.09712611
000350 a8 98 bf 3c 90 9a cc 3d 6e d4 9d bd 00 91 7d 3a
       0.023388222 0.09990418 -0.07706533 0.0009672791
000360 6a 03 d8 bd 2c f1 c4 3d 38 11 b0 3c 62 8d f4 bd
       -0.10547526 0.096163124 0.021492586 -0.11941029
000370 d0 66 44 3d 28 73 b4 bc 30 e9 bb bd 3a 0d c1 bd
       0.047949612 -0.022027567 -0.09175336 -0.09426351
000380 16 ef dd 3d 72 46 c8 bd 70 97 0f bc d8 1c c8 bc
       0.10836618 -0.097790614 -0.008764133 -0.024427816
000390 c8 37 c2 bd d0 9a f6 bd 1c a4 73 bd 80 0a d1 3b
       -0.09483296 -0.12041247 -0.05948268 0.0063794255
0003a0 42 d4 9a bd 30 bf 90 3c 08 a2 a6 bc e4 71 54 bd
       -0.07560016 0.01766929 -0.020340934 -0.051866427
0003b0 5e 8b c4 bd 44 60 e2 3d ce d4 e4 3d 84 54 a9 bd
       -0.09596895 0.110535175 0.11173402 -0.08268073
0003c0 80 db cc ba ce cf ed bd 3e ca ed 3d c6 12 dc 3d
       -0.0015629381 -0.11611901 0.1161084 0.10745768
0003d0 24 c1 37 3d 7a f9 82 3d 3c bc 63 3d 28 b0 bc bc
       0.044861928 0.0639524 0.055599436 -0.023033217
0003e0 f0 a3 6f bc 0c 2f fa 3d 36 fa f8 bd cc 65 1b bd
       -0.014626488 0.12216005 -0.12157099 -0.037938878
0003f0 f4 3d 47 bd 3c a3 d7 3d 8c a1 29 bd 28 e4 b3 bd
       -0.048643067 0.10529181 -0.04141383 -0.08783752

model.2.bias f4 [64]
000000 9a b8 d8 3d d4 ed 1e 3d 08 d8 bf 3d a0 10 71 bd
       0.10582085 0.03880103 0.093673766 -0.058853745
000010 0c e3 bd 3d 8a 4e d1 3d e8 11 d8 3d 24 35 e3 bd
       0.092718214 0.10220058 0.1055029 -0.1109412
000020 64 7c a5 bd 60 37 aa bb e6 73 8d 3d e0 fd 96 3d
       -0.08080366 -0.0051945895 0.069068715 0.073726416
000030 aa 8d e3 bd b6 f3 d0 3d aa 27 a2 3d 9e 5c f7 3d
       -0.11111005 0.10202734 0.079177216 0.12078212
000040 de 66 c0 3d c8 c2 c9 3d 34 9b 66 bd 48 0c 53 bd
       0.0939462 0.09851605 -0.056300357 -0.051525384
000050 00 f6 53 3a da a0 f7 bd d8 f5 bb 3c 60 1d 9a bc
       0.0008085668 -0.12091227 0.022944376 -0.018812835
000060 ec 9f 0c bd 90 c9 3e bc 00 04 ef 3d b8 0b 9d 3d
       -0.0343322 -0.011644736 0.11670685 0.07668251
000070 9c d1 2c bd 18 d3 c5 bc aa a3 e0 3d 36 5a f8 bd
       -0.042192087 -0.024148509 0.109687164 -0.12126581
000080 1c fd 2c 3d e8 69 db bd a0 00 3e 3d 64 03 70 3d
       0.04223357 -0.107135594 0.046387315 0.058596984
000090 58 48 83 3d 00 b0 db 3d 86 c2 9f bd 80 3c 28 bd
       0.06410283 0.10726929 -0.07800774 -0.041073322
0000a0 de f9 ef 3d 7e 82 f1 bd 60 aa d4 bd 68 0e 98 3d
       0.1171758 -0.117924675 -0.10384059 0.07424623
0000b0 c0 fc 96 bb 60 27 53 3d 74 cd 20 bd ec bd 55 bd
       -0.004607767 0.051551223 -0.039258435 -0.052183077
0000c0 64 48 84 bd 08 0b 17 3d 26 37 d2 3d b8 cc 87 3d
       -0.0645912 0.036875755 0.10264425 0.06630844
0000d0 92 dc ab 3d 4a 0c ec bd 20 0d 25 bd 20 2f 7d 3c
       0.0839168 -0.115257815 -0.04029572 0.01545313
0000e0 fc d2 82 3d 80 5d ef bd 3c 03 38 3d 64 7b 9f 3d
       0.06387898 -0.116877556 0.04492496 0.07787207
0000f0 60 3d fe 3b 82 10 e8 3d 18 a3 74 bd 90 6d 5a bd
       0.0077587813 0.113312736 -0.05972585 -0.053327143

model.4.weight f4 [1, 64]
000000 b0 d9 2d 3d 30 eb 58 bd 68 22 0b bd 10 77 25 3c
       0.04244393 -0.052958667 -0.03396836 0.0100991875
000010 52 3b 8d bd 90 9c 85 3d c8 35 1c bd a0 0b 54 3d
       -0.0689608 0.065240026 -0.038137227 0.0517689
000020 aa 6a e0 bd 70 24 e1 bc 32 f1 f3 3d 1e 7e bf 3d
       -0.109578446 -0.027483195 0.11911239 0.09350227
000030 60 9c 55 3c 18 36 af bc 00 dd 4d 3d 00 f7 82 bd
       0.013037771 -0.021388099 0.05025959 -0.06394768
000040 d0 dc a2 bd 26 85 c4 3d 40 cc e3 3b bc a8 df bd
       -0.07952273 0.095957085 0.0069518387 -0.109208554
000050 70 f6 3a bc ce 0e 9e bd 78 2b 7e bd 1c 3c 8d 3d
       -0.011411294 -0.077176675 -0.062053174 0.068962306
000060 f0 ef 29 3c 48 51 61 bd e4 df f6 3d c0 c4 0d 3b
       0.010372147 -0.055009156 0.120544225 0.0021632165
000070 68 14 d7 bc 30 4c 37 3c 6c 44 75 3d 8a 39 c8 bd
       -0.026254848 0.011187598 0.059879705 -0.097766
000080 28 90 87 bc 80 19 df 3a 18 bc 2b bd a8 4e a8 3d
       -0.016548231 0.0017021149 -0.041927427 0.082181275
000090 cc 34 bb 3d c4 9e bd 3d f6 24 d2 3d d4 5a 5c bd
       0.091409296 0.09258798 0.10260956 -0.053797558
0000a0 d6 f4 a1 3d 10 9e 6a 3c 98 3c c7 3c d0 14 68 3c
       0.07908027 0.014319912 0.024320886 0.014165118
0000b0 d8 80 1b bd 7a b4 b2 bd 40 55 e6 3d fe c0 8b bd
       -0.03796467 -0.087258294 0.11246729 -0.0682392
0000c0 d2 63 84 3d 14 20 ed 3d 2c 01 ac bd 14 e7 f8 3d
       0.06464352 0.11578384 -0.08398661 0.1215345
0000d0 c4 aa 4e bd 40 74 ea 3b e0 1e 61 3c f8 71 a7 3d
       -0.050455824 0.0071549714 0.013740271 0.08176035
0000e0 30 bc 93 3d 36 ff 93 bd a0 94 04 3c b0 f8 d8 bd
       0.07213628 -0.07226412 0.008092076 -0.105943084
0000f0 20 4f 94 bc 02 58 d1 bd 3c 91 da bd 22 47 92 3d
       -0.018104136 -0.10221864 -0.106722325 0.07142474
